…
 cfg=None, tracker=botsort.yaml, save_dir=runs/segment/train\r\n",
      "Downloading https://ultralytics.com/assets/Arial.ttf to '/root/.config/Ultralytics/Arial.ttf'...\r\n",
      "100%|â–ˆâ–ˆâ–ˆâ–ˆâ–ˆâ–ˆâ–ˆâ–ˆâ–ˆâ–ˆâ–ˆâ–ˆâ–ˆâ–ˆâ–ˆâ–ˆâ–ˆâ–ˆâ–ˆâ–ˆâ–ˆâ–ˆâ–ˆâ–ˆâ–ˆâ–ˆâ–ˆâ–ˆâ–ˆâ–ˆâ–ˆâ–ˆâ–ˆâ–ˆâ–ˆâ–ˆâ–ˆâ–ˆâ–ˆâ–ˆ| 755k/755k [00:00<00:00, 3.77MB/s]\r\n",
      "Overriding model.yaml nc=80 with nc=1\r\n",
      "\r\n",
      "                   from  n    params  module                                       arguments                     \r\n",
      "  0                  -1  1      2784  ultralytics.nn.modules.conv.Conv             [3, 96, 3, 2]                 \r\n",
      "  1                  -1  1    166272  ultralytics.nn.modules.conv.Conv             [96, 192, 3, 2]               \r\n",
      "  2                  -1  2    389760  ultralytics.nn.modules.block.C3k2            [192, 384, 2, True, 0.25]     \r\n",
      "  3                  -1  1   1327872  ultralytics.nn.modules.conv.Conv             [384, 384, 3, 2]              \r\n",
      "  4                  -1  2   1553664  ultralytics.nn.modules.block.C3k2            [384, 768, 2, True, 0.25]     \r\n",
      "  5                  -1  1   5309952  ultralytics.nn.modules.conv.Conv             [768, 768, 3, 2]              \r\n",
      "  6                  -1  2   5022720  ultralytics.nn.modules.block.C3k2            [768, 768, 2, True]           \r\n",
      "  7                  -1  1   5309952  ultralytics.nn.modules.conv.Conv             [768, 768, 3, 2]              \r\n",
      "  8                  -1  2   5022720  ultralytics.nn.modules.block.C3k2            [768, 768, 2, True]           \r\n",
      "  9                  -1  1   1476864  ultralytics.nn.modules.block.SPPF            [768, 768, 5]                 \r\n",
      " 10                  -1  2   3264768  ultralytics.nn.modules.block.C2PSA           [768, 768, 2]                 \r\n",
      " 11                  -1  1         0  torch.nn.modules.upsampling.Upsample         [None, 2, 'nearest']          \r\n",
      " 12             [-1, 6]  1         0  ultralytics.nn.modules.conv.Concat           [1]                           \r\n",
      " 13                  -1  2   5612544  ultralytics.nn.modules.block.C3k2            [1536, 768, 2, True]          \r\n",
      " 14                  -1  1         0  torch.nn.modules.upsampling.Upsample         [None, 2, 'nearest']          \r\n",
      " 15             [-1, 4]  1         0  ultralytics.nn.modules.conv.Concat           [1]                           \r\n",
      " 16                  -1  2   1700352  ultralytics.nn.modules.block.C3k2            [1536, 384, 2, True]          \r\n",
      " 17                  -1  1   1327872  ultralytics.nn.modules.conv.Conv             [384, 384, 3, 2]              \r\n",
      " 18            [-1, 13]  1         0  ultralytics.nn.modules.conv.Concat           [1]                           \r\n",
      " 19                  -1  2   5317632  ultralytics.nn.modules.block.C3k2            [1152, 768, 2, True]          \r\n",
      " 20                  -1  1   5309952  ultralytics.nn.modules.conv.Conv             [768, 768, 3, 2]              \r\n",
      " 21            [-1, 10]  1         0  ultralytics.nn.modules.conv.Concat           [1]                           \r\n",
      " 22                  -1  2   5612544  ultralytics.nn.modules.block.C3k2            [1536, 768, 2, True]          \r\n",
      " 23        [16, 19, 22]  1   8323187  ultralytics.nn.modules.head.Segment          [1, 32, 384, [384, 768, 768]] \r\n",
      "YOLO11x-seg summary: 667 layers, 62,051,411 parameters, 62,051,395 gradients, 319.7 GFLOPs\r\n",
      "\r\n",
      "Transferred 1071/1077 items from pretrained weights\r\n",
      "\u001b[34m\u001b[1mTensorBoard: \u001b[0mStart with 'tensorboard --logdir runs/segment/train', view at http://localhost:6006/\r\n",
      "Freezing layer 'model.23.dfl.conv.weight'\r\n",
…
